…
our model’s layers\nWe can inspect the full model architecture by running print(model) (I’ve commented this out for brevity).\nAnd if you do so, you’ll see a large list of layers which combine to contribute to make the overall model.\nThe following subset of layers has been truncated for brevity.\n# Shortened version of the model architecture, print the full model to see all layers\nConditionalDetrForObjectDetection(\n  (model): ConditionalDetrModel(\n    (backbone): ConditionalDetrConvModel(\n      (conv_encoder): ConditionalDetrConvEncoder(\n        (model): FeatureListNet(\n          (conv1): Conv2d(3, 64, kernel_size=(7, 7), stride=(2, 2), padding=(3, 3), bias=False)\n          (bn1): ConditionalDetrFrozenBatchNorm2d()\n              ...\n          (layer1): Sequential(\n            (0): Bottleneck(\n              (conv1): Conv2d(64, 64, kernel_size=(1, 1), stride=(1, 1), bias=False)\n              (bn1): ConditionalDetrFrozenBatchNorm2d())))\n            ...\n      (position_embedding): ConditionalDetrSinePositionEmbedding()\n    )\n    (input_projection): Conv2d(2048, 256, kernel_size=(1, 1), stride=(1, 1))\n    (query_position_embeddings): Embedding(300, 256)\n    (encoder): ConditionalDetrEncoder(\n      (layers): ModuleList(\n        (0-5): 6 x ConditionalDetrEncoderLayer(\n          (self_attn): DetrAttention(\n              ...\n          )\n          (self_attn_layer_norm): LayerNorm((256,), eps=1e-05, elementwise_affine=True))))\n    (decoder): ConditionalDetrDecoder(\n      (layers): ModuleList(\n        (0): ConditionalDetrDecoderLayer(...)\n      (layernorm): LayerNorm((256,), eps=1e-05, elementwise_affine=True)\n      (query_scale): MLP(\n        (layers): ModuleList(\n          (0-1): 2 x Linear(in_features=256, out_features=256, bias=True)))\n      (ref_point_head): MLP(\n        ...\n      ))))\n  (class_labels_classifier): Linear(in_features=256, out_features=7, bias=True)\n  (bbox_predictor): ConditionalDetrMLPPredictionHead(\n    (layers): ModuleList(\n      (0-1): 2 x Linear(in_features=256, out_features=256, bias=True)\n      (2): Linear(in_features=256, out_features=4, bias=True)))))\nIf we check out a few of our model’s layers, we can see that it is a combination of convolutional, attention, MLP (multi-layer perceptron) and linear layers.\nI’ll leave exploring each of these layer types for extra-curriculum.\nFor now, think of them as progressively pattern extractors.\nWe’ll feed our input image into our model and layer by layer 
…
e (torch.nn.Module) it will by default run the forward method.\nIn PyTorch, forward overrides the special __call__ method on functions.\nSo we can pass data into our model by running:\nmodel(input_data)\nWhich is equivalent to running:\nmodel.forward(input_data)\nTo see what happens when we call our model, let’s inspect the forward method’s docstring with model.forward?.\n\nmodel\n\nConditionalDetrForObjectDetection(\n  (model): ConditionalDetrModel(\n    (backbone): ConditionalDetrConvModel(\n      (conv_encoder): ConditionalDetrConvEncoder(\n        (model): FeatureListNet(\n          (conv1): Conv2d(3, 64, kernel_size=(7, 7), stride=(2, 2), padding=(3, 3), bias=False)\n          (bn1): ConditionalDetrFrozenBatchNorm2d()\n          (act1): ReLU(inplace=True)\n          (maxpool): MaxPool2d(kernel_size=3, stride=2, padding=1, dilation=1, ceil_mode=False)\n          (layer1): Sequential(\n            (0): Bottleneck(\n              (conv1): Conv2d(64, 64, kernel_size=(1, 1), stride=(1, 1), bias=False)\n              (bn1): ConditionalDetrFrozenBatchNorm2d()\n              (act1): ReLU(inplace=True)\n              (conv2): Conv2d(64, 64, kernel_size=(3, 3), stride=(1, 1), padding=(1, 1), bias=False)\n              (bn2): ConditionalDetrFrozenBatchNorm2d()\n              (drop_block): Identity()\n              (act2): ReLU(inplace=True)\n              (aa): Identity()\n              (conv3): Conv2d(64, 256, kernel_size=(1, 1), stride=(1, 1), bias=False)\n              (bn3): ConditionalDetrFrozenBatchNorm2d()\n              (act3): ReLU(inplace=True)\n              (downsample): Sequential(\n                (0): Conv2d(64, 256, kernel_size=(1, 1), stride=(1, 1), bias=False)\n                (1): ConditionalDetrFrozenBatchNorm2d()\n              )\n            )\n            (1): Bottleneck(\n              (conv1): Conv2d(256, 64, kernel_size=(1, 1), stride=(1, 1), bias=False)\n              (bn1): ConditionalDetrFrozenBatchNorm2d()\n              (act1): ReLU(inplace=True)\n              (conv2): Conv2d(64, 64, kernel_size=(3, 3), stride=(1, 1), padding=(1, 1), bias=False)\n              (bn2): ConditionalDetrFrozenBatchNorm2d()\n              (drop_block): Identity()\n              (act2): ReLU(inplace=True)\n              (aa): Identity()\n              (conv3): Conv2d(64, 256, kernel_size=(1, 1), stride=(1, 1), bias=False)\n              (bn3): ConditionalDetrFrozenBatchNorm2d()\n              (act3): ReLU(inplace=True)\n            )\n            (2): Bottleneck(\n              (conv1): Conv2d(256, 64, kernel_size=(1, 1), stride=(1, 1), bias=False)\n              (bn1): ConditionalDetrFrozenBatchNorm2d()\n              (act1): ReLU(inplace=True)\n              (conv2): Conv2d(64, 64, kernel_size=(3, 3), stride=(1, 1), padding=(1, 1), bias=False)\n              (bn2): ConditionalDetrFrozenBatchNorm2d()\n              (drop_block): Identity()\n              (act2): ReLU(inplace=True)\n              (aa): Identity()\n              (conv3): Conv2d(64, 256, kernel_size=(1, 1), stride=(1, 1), bias=False)\n              (bn3): ConditionalDetrFrozenBatchNorm2d()\n              (act3): ReLU(inplace=True)\n            )\n          )\n          (layer2): Sequential(\n            (0): Bottleneck(\n              (conv1): Conv2d(256, 128, kernel_size=(1, 1), stride=(1, 1), bias=False)\n              (bn1): ConditionalDetrFrozenBatchNorm2d()\n              (act1): ReLU(inplace=True)\n              (conv2): Conv2d(128, 128, kernel_size=(3, 3), stride=(2, 2), padding=(1, 1), bias=False)\n              (bn2): ConditionalDetrFrozenBatchNorm2d()\n              (drop_block): Identity()\n              (act2): ReLU(inplace=True)\n              (aa): Identity()\n              (conv3): Conv2d(128, 512, kernel_size=(1, 1), stride=(1, 1), bias=False)\n              (bn3): ConditionalDetrFrozenBatchNorm2d()\n              (act3): ReLU(inplace=True)\n              (downsample): Sequential(\n                (0): Conv2d(256, 512, kernel_size=(1, 1), stride=(2, 2), bias=False)\n                (1): ConditionalDetrFrozenBatchNorm2d()\n              )\n            )\n            (1): Bottleneck(\n              (conv1): Conv2d(512, 128, kernel_size=(1, 1), stride=(1, 1), bias=False)\n              (bn1): ConditionalDetrFrozenBatchNorm2d()\n              (act1): ReLU(inplace=True)\n              (conv2): Conv2d(128, 128, kernel_size=(3, 3), stride=(1, 1), padding=(1, 1), bias=False)\n              (bn2): ConditionalDetrFrozenBatchNorm2d()\n              (drop_block): Identity()\n              (act2): ReLU(inplace=True)\n              (aa): Identity()\n              (conv3): Conv2d(128, 512, kernel_size=(1, 1), stride=(1, 1), bias=False)\n              (bn3): ConditionalDetrFrozenBatchNorm2d()\n              (act3): ReLU(inplace=True)\n            )\n            (2): Bottleneck(\n              (conv1): Conv2d(512, 128, kernel_size=(1, 1), stride=(1, 1), bias=False)\n              (bn1): ConditionalDetrFrozenBatchNorm2d()\n              (act1): ReLU(inplace=True)\n              (conv2): Conv2d(128, 128, kernel_size=(3, 3), stride=(1, 1), padding=(1, 1), bias=False)\n              (bn2): ConditionalDetrFrozenBatchNorm2d()\n              (drop_block): Identity()\n              (act2): ReLU(inplace=True)\n              (aa): Identity()\n              (conv3): Conv2d(128, 512, kernel_size=(1, 1), stride=(1, 1), bias=False)\n              (bn3): ConditionalDetrFrozenBatchNorm2d()\n              (act3): ReLU(inplace=True)\n            )\n            (3): Bottleneck(\n              (conv1): Conv2d(512, 128, kernel_size=(1, 1), stride=(1, 1), bias=False)\n              (bn1): ConditionalDetrFrozenBatchNorm2d()\n              (act1): ReLU(inplace=True)\n              (conv2): Conv2d(128, 128, kernel_size=(3, 3), stride=(1, 1), padding=(1, 1), bias=False)\n              (bn2): ConditionalDetrFrozenBatchNorm2d()\n              (drop_block): Identity()\n              (act2): ReLU(inplace=True)\n              (aa): Identity()\n              (conv3): Conv2d(128, 512, kernel_size=(1, 1), stride=(1, 1), bias=False)\n              (bn3): ConditionalDetrFrozenBatchNorm2d()\n              (act3): ReLU(inplace=True)\n            )\n          )\n          (layer3): Sequential(\n            (0): Bottleneck(\n              (conv1): Conv2d(512, 256, kernel_size=(1, 1), stride=(1, 1), bias=False)\n              (bn1): ConditionalDetrFrozenBatchNorm2d()\n              (act1): ReLU(inplace=True)\n              (conv2): Conv2d(256, 256, kernel_size=(3, 3), stride=(2, 2), padding=(1, 1), bias=False)\n              (bn2): ConditionalDetrFrozenBatchNorm2d()\n              (drop_block): Identity()\n              (act2): ReLU(inplace=True)\n              (aa): Identity()\n              (conv3): Conv2d(256, 1024, kernel_size=(1, 1), stride=(1, 1), bias=False)\n              (bn3): ConditionalDetrFrozenBatchNorm2d()\n              (act3): ReLU(inplace=True)\n              (downsample): Sequential(\n                (0): Conv2d(512, 1024, kernel_size=(1, 1), stride=(2, 2), bias=False)\n                (1): ConditionalDetrFrozenBatchNorm2d()\n              )\n            )\n            (1): Bottleneck(\n              (conv1): Conv2d(1024, 256, kernel_size=(1, 1), stride=(1, 1), bias=False)\n              (bn1): ConditionalDetrFrozenBatchNorm2d()\n              (act1): ReLU(inplace=True)\n              (conv2): Conv2d(256, 256, kernel_size=(3, 3), stride=(1, 1), padding=(1, 1), bias=False)\n              (bn2): ConditionalDetrFrozenBatchNorm2d()\n              (drop_block): Identity()\n              (act2): ReLU(inplace=True)\n              (aa): Identity()\n              (conv3): Conv2d(256, 1024, kernel_size=(1, 1), stride=(1, 1), bias=False)\n              (bn3): ConditionalDetrFrozenBatchNorm2d()\n              (act3): ReLU(inplace=True)\n            )\n            (2): Bottleneck(\n              (conv1): Conv2d(1024, 256, kernel_size=(1, 1), stride=(1, 1), bias=False)\n              (bn1): ConditionalDetrFrozenBatchNorm2d()\n              (act1): ReLU(inplace=True)\n              (conv2): Conv2d(256, 256, kernel_size=(3, 3), stride=(1, 1), padding=(1, 1), bias=False)\n              (bn2): ConditionalDetrFrozenBatchNorm2d()\n              (drop_block): Identity()\n              (act2): ReLU(inplace=True)\n              (aa): Identity()\n              (conv3): Conv2d(256, 1024, kernel_size=(1, 1), stride=(1, 1), bias=False)\n              (bn3): ConditionalDetrFrozenBatchNorm2d()\n              (act3): ReLU(inplace=True)\n            )\n            (3): Bottleneck(\n              (conv1): Conv2d(1024, 256, kernel_size=(1, 1), stride=(1, 1), bias=False)\n              (bn1): ConditionalDetrFrozenBatchNorm2d()\n              (act1): ReLU(inplace=True)\n              (conv2): Conv2d(256, 256, kernel_size=(3, 3), stride=(1, 1), padding=(1, 1), bias=False)\n              (bn2): ConditionalDetrFrozenBatchNorm2d()\n              (drop_block): Identity()\n              (act2): ReLU(inplace=True)\n              (aa): Identity()\n              (conv3): Conv2d(256, 1024, kernel_size=(1, 1), stride=(1, 1), bias=False)\n              (bn3): ConditionalDetrFrozenBatchNorm2d()\n              (act3): ReLU(inplace=True)\n            )\n            (4): Bottleneck(\n              (conv1): Conv2d(1024, 256, kernel_size=(1, 1), stride=(1, 1), bias=False)\n              (bn1): ConditionalDetrFrozenBatchNorm2d()\n              (act1): ReLU(inplace=True)\n              (conv2): Conv2d(256, 256, kernel_size=(3, 3), stride=(1, 1), padding=(1, 1), bias=False)\n              (bn2): ConditionalDetrFrozenBatchNorm2d()\n              (drop_block): Identity()\n              (act2): ReLU(inplace=True)\n              (aa): Identity()\n              (conv3): Conv2d(256, 1024, kernel_size=(1, 1), stride=(1, 1), bias=False)\n              (bn3): ConditionalDetrFrozenBatchNorm2d()\n              (act3): ReLU(inplace=True)\n            )\n            (5): Bottleneck(\n              (conv1): Conv2d(1024, 256, kernel_size=(1, 1), stride=(1, 1), bias=False)\n              (bn1): ConditionalDetrFrozenBatchNorm2d()\n              (act1): ReLU(inplace=True)\n              (conv2): Conv2d(256, 256, kernel_size=(3, 3), stride=(1, 1), padding=(1, 1), bias=False)\n              (bn2): ConditionalDetrFrozenBatchNorm2d()\n              (drop_block): Identity()\n              (act2): ReLU(inplace=True)\n              (aa): Identity()\n              (conv3): Conv2d(256, 1024, kernel_size=(1, 1), stride=(1, 1), bias=False)\n              (bn3): ConditionalDetrFrozenBatchNorm2d()\n              (act3): ReLU(inplace=True)\n            )\n          )\n          (layer4): Sequential(\n            (0): Bottleneck(\n              (conv1): Conv2d(1024, 512, kernel_size=(1, 1), stride=(1, 1), bias=False)\n              (bn1): ConditionalDetrFrozenBatchNorm2d()\n              (act1): ReLU(inplace=True)\n              (conv2): Conv2d(512, 512, kernel_size=(3, 3), stride=(2, 2), padding=(1, 1), bias=False)\n              (bn2): ConditionalDetrFrozenBatchNorm2d()\n              (drop_block): Identity()\n              (act2): ReLU(inplace=True)\n              (aa): Identity()\n              (conv3): Conv2d(512, 2048, kernel_size=(1, 1), stride=(1, 1), bias=False)\n              (bn3): ConditionalDetrFrozenBatchNorm2d()\n              (act3): ReLU(inplace=True)\n              (downsample): Sequential(\n                (0): Conv2d(1024, 2048, kernel_size=(1, 1), stride=(2, 2), bias=False)\n                (1): ConditionalDetrFrozenBatchNorm2d()\n              )\n            )\n            (1): Bottleneck(\n              (conv1): Conv2d(2048, 512, kernel_size=(1, 1), stride=(1, 1), bias=False)\n              (bn1): ConditionalDetrFrozenBatchNorm2d()\n              (act1): ReLU(inplace=True)\n              (conv2): Conv2d(512, 512, kernel_size=(3, 3), stride=(1, 1), padding=(1, 1), bias=False)\n              (bn2): ConditionalDetrFrozenBatchNorm2d()\n              (drop_block): Identity()\n              (act2): ReLU(inplace=True)\n              (aa): Identity()\n              (conv3): Conv2d(512, 2048, kernel_size=(1, 1), stride=(1, 1), bias=False)\n              (bn3): ConditionalDetrFrozenBatchNorm2d()\n              (act3): ReLU(inplace=True)\n            )\n            (2): Bottleneck(\n              (conv1): Conv2d(2048, 512, kernel_size=(1, 1), stride=(1, 1), bias=False)\n              (bn1): ConditionalDetrFrozenBatchNorm2d()\n              (act1): ReLU(inplace=True)\n              (conv2): Conv2d(512, 512, kernel_size=(3, 3), stride=(1, 1), padding=(1, 1), bias=False)\n              (bn2): ConditionalDetrFrozenBatchNorm2d()\n              (drop_block): Identity()\n              (act2): ReLU(inplace=True)\n              (aa): Identity()\n              (conv3): Conv2d(512, 2048, kernel_size=(1, 1), stride=(1, 1), bias=False)\n              (bn3): ConditionalDetrFrozenBatchNorm2d()\n              (act3): ReLU(inplace=True)\n            )\n          )\n        )\n      )\n      (position_embedding): ConditionalDetrSinePositionEmbedding()\n    )\n    (input_projection): Conv2d(2048, 256, kernel_size=(1, 1), stride=(1, 1))\n    (query_position_embeddings): Embedding(300, 256)\n    (encoder): ConditionalDetrEncoder(\n      (layers): ModuleList(\n        (0-5): 6 x ConditionalDetrEncoderLayer(\n          (self_attn): DetrAttention(\n            (k_proj): Linear(in_features=256, out_features=256, bias=True)\n            (v_proj): Linear(in_features=256, out_features=256, bias=True)\n            (q_proj): Linear(in_features=256, out_features=256, bias=True)\n            (out_proj): Linear(in_features=256, out_features=256, bias=True)\n          )\n          (self_attn_layer_norm): LayerNorm((256,), eps=1e-05, elementwise_affine=True)\n          (activation_fn): ReLU()\n          (fc1): Linear(in_features=256, out_features=2048, bias=True)\n          (fc2): Linear(in_features=2048, out_features=256, bias=True)\n          (final_layer_norm): LayerNorm((256,), eps=1e-05, elementwise_affine=True)\n        )\n      )\n    )\n    (decoder): ConditionalDetrDecoder(\n      (layers): ModuleList(\n        (0): ConditionalDetrDecoderLayer(\n          (sa_qcontent_proj): Linear(in_features=256, out_features=256, bias=True)\n          (sa_qpos_proj): Linear(in_features=256, out_features=256, bias=True)\n          (sa_kcontent_proj): Linear(in_features=256, out_features=256, bias=True)\n          (sa_kpos_proj): Linear(in_features=256, out_features=256, bias=True)\n          (sa_v_proj): Linear(in_features=256, out_features=256, bias=True)\n          (self_attn): ConditionalDetrAttention(\n            (out_proj): Linear(in_features=256, out_features=256, bias=True)\n          )\n          (activation_fn): ReLU()\n          (self_attn_layer_norm): LayerNorm((256,), eps=1e-05, elementwise_affine=True)\n          (ca_qcontent_proj): Linear(in_features=256, out_features=256, bias=True)\n          (ca_qpos_proj): Linear(in_features=256, out_features=256, bias=True)\n          (ca_kcontent_proj): Linear(in_features=256, out_features=256, bias=True)\n          (ca_kpos_proj): Linear(in_features=256, out_features=256, bias=True)\n          (ca_v_proj): Linear(in_features=256, out_features=256, bias=True)\n          (ca_qpos_sine_proj): Linear(in_features=256, out_features=256, bias=True)\n          (encoder_attn): ConditionalDetrAttention(\n            (out_proj): Linear(in_features=256, out_features=256, bias=True)\n          )\n          (encoder_attn_layer_norm): LayerNorm((256,), eps=1e-05, elementwise_affine=True)\n          (fc1): Linear(in_features=256, out_features=2048, bias=True)\n          (fc2): Linear(in_features=2048, out_features=256, bias=True)\n          (final_layer_norm): LayerNorm((256,), eps=1e-05, elementwise_affine=True)\n        )\n        (1-5): 5 x ConditionalDetrDecoderLayer(\n          (sa_qcontent_proj): Linear(in_features=256, out_features=256, bias=True)\n          (sa_qpos_proj): Linear(in_features=256, out_features=256, bias=True)\n          (sa_kcontent_proj): Linear(in_features=256, out_features=256, bias=True)\n          (sa_kpos_proj): Linear(in_features=256, out_features=256, bias=True)\n          (sa_v_proj): Linear(in_features=256, out_features=256, bias=True)\n          (self_attn): ConditionalDetrAttention(\n            (out_proj): Linear(in_features=256, out_features=256, bias=True)\n          )\n          (activation_fn): ReLU()\n          (self_attn_layer_norm): LayerNorm((256,), eps=1e-05, elementwise_affine=True)\n          (ca_qcontent_proj): Linear(in_features=256, out_features=256, bias=True)\n          (ca_qpos_proj): None\n          (ca_kcontent_proj): Linear(in_features=256, out_features=256, bias=True)\n          (ca_kpos_proj): Linear(in_features=256, out_features=256, bias=True)\n          (ca_v_proj): Linear(in_features=256, out_features=256, bias=True)\n          (ca_qpos_sine_proj): Linear(in_features=256, out_features=256, bias=True)\n          (encoder_attn): ConditionalDetrAttention(\n            (out_proj): Linear(in_features=256, out_features=256, bias=True)\n          )\n          (encoder_attn_layer_norm): LayerNorm((256,), eps=1e-05, elementwise_affine=True)\n          (fc1): Linear(in_features=256, out_features=2048, bias=True)\n          (fc2): Linear(in_features=2048, out_features=256, bias=True)\n          (final_layer_norm): LayerNorm((256,), eps=1e-05, elementwise_affine=True)\n        )\n      )\n      (layernorm): LayerNorm((256,), eps=1e-05, elementwise_affine=True)\n      (query_scale): MLP(\n        (layers): ModuleList(\n          (0-1): 2 x Linear(in_features=256, out_features=256, bias=True)\n        )\n      )\n      (ref_point_head): MLP(\n        (layers): ModuleList(\n          (0): Linear(in_features=256, out_features=256, bias=True)\n          (1): Linear(in_features=256, out_features=2, bias=True)\n        )\n      )\n    )\n  )\n  (class_labels_classifier): Linear(in_features=256, out_features=7, bias=True)\n  (bbox_predictor): ConditionalDetrMLPPredictionHead(\n    (layers): ModuleList(\n      (0-1): 2 x Linear(in_features=256, out_features=256, bias=True)\n      (2): Linear(in_features=256, out_features=4, bias=True)\n    )\n  )\n)\n\n\n\n# What happens when we call our model?\n# Note: for PyTorch modules, `forward` overrides the __call__ method, \n# so calling the model is equivalent to calling the forward method.\nmodel.forward?\n\n\n\nOutput of model.forward?\n\nSignature:\nmodel.forward(\n    pixel_values: torch.FloatTensor,\n    pixel_mask: Optional[torch.LongTe
…
tch:\n- class_labels_classifier.bias: found shape torch.Size([91]) in the checkpoint and torch.Size([7]) in the model instantiated\n- class_labels_classifier.weight: found shape torch.Size([91, 256]) in the checkpoint and torch.Size([7, 256]) in the model instantiated\nYou should probably TRAIN this model on a down-stream task to be able to use it for predictions and inference.\n\n\nConditionalDetrForObjectDetection(\n  (model): ConditionalDetrModel(\n    (backbone): ConditionalDetrConvModel(\n      (conv_encoder): ConditionalDetrConvEncoder(\n        (model): FeatureListNet(\n          (conv1): Conv2d(3, 64, kernel_size=(7, 7), stride=(2, 2), padding=(3, 3), bias=False)\n          (bn1): ConditionalDetrFrozenBatchNorm2d()\n          (act1): ReLU(inplace=True)\n          (maxpool): MaxPool2d(kernel_size=3, stride=2, padding=1, dilation=1, ceil_mode=False)\n          (layer1): Sequential(\n            (0): Bottleneck(\n              (conv1): Conv2d(64, 64, kernel_size=(1, 1), stride=(1, 1), bias=False)\n              (bn1): ConditionalDetrFrozenBatchNorm2d()\n              (act1): ReLU(inplace=True)\n              (conv2): Conv2d(64, 64, kernel_size=(3, 3), stride=(1, 1), padding=(1, 1), bias=False)\n              (bn2): ConditionalDetrFrozenBatchNorm2d()\n              (drop_block): Identity()\n              (act2): ReLU(inplace=True)\n              (aa): Identity()\n              (conv3): Conv2d(64, 256, kernel_size=(1, 1), stride=(1, 1), bias=False)\n              (bn3): ConditionalDetrFrozenBatchNorm2d()\n              (act3): ReLU(inplace=True)\n              (downsample): Sequential(\n                (0): Conv2d(64, 256, kernel_size=(1, 1), stride=(1, 1), bias=False)\n                (1): ConditionalDetrFrozenBatchNorm2d()\n              )\n            )\n            (1): Bottleneck(\n              (conv1): Conv2d(256, 64, kernel_size=(1, 1), stride=(1, 1), bias=False)\n              (bn1): ConditionalDetrFrozenBatchNorm2d()\n              (act1): ReLU(inplace=True)\n              (conv2): Conv2d(64, 64, kernel_size=(3, 3), stride=(1, 1), padding=(1, 1), bias=False)\n              (bn2): ConditionalDetrFrozenBatchNorm2d()\n              (drop_block): Identity()\n              (act2): ReLU(inplace=True)\n              (aa): Identity()\n              (conv3): Conv2d(64, 256, kernel_size=(1, 1), stride=(1, 1), bias=False)\n              (bn3): ConditionalDetrFrozenBatchNorm2d()\n              (act3): ReLU(inplace=True)\n            )\n            (2): Bottleneck(\n              (conv1): Conv2d(256, 64, kernel_size=(1, 1), stride=(1, 1), bias=False)\n              (bn1): ConditionalDetrFrozenBatchNorm2d()\n              (act1): ReLU(inplace=True)\n              (conv2): Conv2d(64, 64, kernel_size=(3, 3), stride=(1, 1), padding=(1, 1), bias=False)\n              (bn2): ConditionalDetrFrozenBatchNorm2d()\n              (drop_block): Identity()\n              (act2): ReLU(inplace=True)\n              (aa): Identity()\n              (conv3): Conv2d(64, 256, kernel_size=(1, 1), stride=(1, 1), bias=False)\n              (bn3): ConditionalDetrFrozenBatchNorm2d()\n              (act3): ReLU(inplace=True)\n            )\n          )\n          (layer2): Sequential(\n            (0): Bottleneck(\n              (conv1): Conv2d(256, 128, kernel_size=(1, 1), stride=(1, 1), bias=False)\n              (bn1): ConditionalDetrFrozenBatchNorm2d()\n              (act1): ReLU(inplace=True)\n              (conv2): Conv2d(128, 128, kernel_size=(3, 3), stride=(2, 2), padding=(1, 1), bias=False)\n              (bn2): ConditionalDetrFrozenBatchNorm2d()\n              (drop_block): Identity()\n              (act2): ReLU(inplace=True)\n              (aa): Identity()\n              (conv3): Conv2d(128, 512, kernel_size=(1, 1), stride=(1, 1), bias=False)\n              (bn3): ConditionalDetrFrozenBatchNorm2d()\n              (act3): ReLU(inplace=True)\n              (downsample): Sequential(\n                (0): Conv2d(256, 512, kernel_size=(1, 1), stride=(2, 2), bias=False)\n                (1): ConditionalDetrFrozenBatchNorm2d()\n              )\n            )\n            (1): Bottleneck(\n              (conv1): Conv2d(512, 128, kernel_size=(1, 1), stride=(1, 1), bias=False)\n              (bn1): ConditionalDetrFrozenBatchNorm2d()\n              (act1): ReLU(inplace=True)\n              (conv2): Conv2d(128, 128, kernel_size=(3, 3), stride=(1, 1), padding=(1, 1), bias=False)\n              (bn2): ConditionalDetrFrozenBatchNorm2d()\n              (drop_block): Identity()\n              (act2): ReLU(inplace=True)\n              (aa): Identity()\n              (conv3): Conv2d(128, 512, kernel_size=(1, 1), stride=(1, 1), bias=False)\n              (bn3): ConditionalDetrFrozenBatchNorm2d()\n              (act3): ReLU(inplace=True)\n            )\n            (2): Bottleneck(\n              (conv1): Conv2d(512, 128, kernel_size=(1, 1), stride=(1, 1), bias=False)\n              (bn1): ConditionalDetrFrozenBatchNorm2d()\n              (act1): ReLU(inplace=True)\n              (conv2): Conv2d(128, 128, kernel_size=(3, 3), stride=(1, 1), padding=(1, 1), bias=False)\n              (bn2): ConditionalDetrFrozenBatchNorm2d()\n              (drop_block): Identity()\n              (act2): ReLU(inplace=True)\n              (aa): Identity()\n              (conv3): Conv2d(128, 512, kernel_size=(1, 1), stride=(1, 1), bias=False)\n              (bn3): ConditionalDetrFrozenBatchNorm2d()\n              (act3): ReLU(inplace=True)\n            )\n            (3): Bottleneck(\n              (conv1): Conv2d(512, 128, kernel_size=(1, 1), stride=(1, 1), bias=False)\n              (bn1): ConditionalDetrFrozenBatchNorm2d()\n              (act1): ReLU(inplace=True)\n              (conv2): Conv2d(128, 128, kernel_size=(3, 3), stride=(1, 1), padding=(1, 1), bias=False)\n              (bn2): ConditionalDetrFrozenBatchNorm2d()\n              (drop_block): Identity()\n              (act2): ReLU(inplace=True)\n              (aa): Identity()\n              (conv3): Conv2d(128, 512, kernel_size=(1, 1), stride=(1, 1), bias=False)\n              (bn3): ConditionalDetrFrozenBatchNorm2d()\n              (act3): ReLU(inplace=True)\n            )\n          )\n          (layer3): Sequential(\n            (0): Bottleneck(\n              (conv1): Conv2d(512, 256, kernel_size=(1, 1), stride=(1, 1), bias=False)\n              (bn1): ConditionalDetrFrozenBatchNorm2d()\n              (act1): ReLU(inplace=True)\n              (conv2): Conv2d(256, 256, kernel_size=(3, 3), stride=(2, 2), padding=(1, 1), bias=False)\n              (bn2): ConditionalDetrFrozenBatchNorm2d()\n              (drop_block): Identity()\n              (act2): ReLU(inplace=True)\n              (aa): Identity()\n              (conv3): Conv2d(256, 1024, kernel_size=(1, 1), stride=(1, 1), bias=False)\n              (bn3): ConditionalDetrFrozenBatchNorm2d()\n              (act3): ReLU(inplace=True)\n              (downsample): Sequential(\n                (0): Conv2d(512, 1024, kernel_size=(1, 1), stride=(2, 2), bias=False)\n                (1): ConditionalDetrFrozenBatchNorm2d()\n              )\n            )\n            (1): Bottleneck(\n              (conv1): Conv2d(1024, 256, kernel_size=(1, 1), stride=(1, 1), bias=False)\n              (bn1): ConditionalDetrFrozenBatchNorm2d()\n              (act1): ReLU(inplace=True)\n              (conv2): Conv2d(256, 256, kernel_size=(3, 3), stride=(1, 1), padding=(1, 1), bias=False)\n              (bn2): ConditionalDetrFrozenBatchNorm2d()\n              (drop_block): Identity()\n              (act2): ReLU(inplace=True)\n              (aa): Identity()\n              (conv3): Conv2d(256, 1024, kernel_size=(1, 1), stride=(1, 1), bias=False)\n              (bn3): ConditionalDetrFrozenBatchNorm2d()\n              (act3): ReLU(inplace=True)\n            )\n            (2): Bottleneck(\n              (conv1): Conv2d(1024, 256, kernel_size=(1, 1), stride=(1, 1), bias=False)\n              (bn1): ConditionalDetrFrozenBatchNorm2d()\n              (act1): ReLU(inplace=True)\n              (conv2): Conv2d(256, 256, kernel_size=(3, 3), stride=(1, 1), padding=(1, 1), bias=False)\n              (bn2): ConditionalDetrFrozenBatchNorm2d()\n              (drop_block): Identity()\n              (act2): ReLU(inplace=True)\n              (aa): Identity()\n              (conv3): Conv2d(256, 1024, kernel_size=(1, 1), stride=(1, 1), bias=False)\n              (bn3): ConditionalDetrFrozenBatchNorm2d()\n              (act3): ReLU(inplace=True)\n            )\n            (3): Bottleneck(\n              (conv1): Conv2d(1024, 256, kernel_size=(1, 1), stride=(1, 1), bias=False)\n              (bn1): ConditionalDetrFrozenBatchNorm2d()\n              (act1): ReLU(inplace=True)\n              (conv2): Conv2d(256, 256, kernel_size=(3, 3), stride=(1, 1), padding=(1, 1), bias=False)\n              (bn2): ConditionalDetrFrozenBatchNorm2d()\n              (drop_block): Identity()\n              (act2): ReLU(inplace=True)\n              (aa): Identity()\n              (conv3): Conv2d(256, 1024, kernel_size=(1, 1), stride=(1, 1), bias=False)\n              (bn3): ConditionalDetrFrozenBatchNorm2d()\n              (act3): ReLU(inplace=True)\n            )\n            (4): Bottleneck(\n              (conv1): Conv2d(1024, 256, kernel_size=(1, 1), stride=(1, 1), bias=False)\n              (bn1): ConditionalDetrFrozenBatchNorm2d()\n              (act1): ReLU(inplace=True)\n              (conv2): Conv2d(256, 256, kernel_size=(3, 3), stride=(1, 1), padding=(1, 1), bias=False)\n              (bn2): ConditionalDetrFrozenBatchNorm2d()\n              (drop_block): Identity()\n              (act2): ReLU(inplace=True)\n              (aa): Identity()\n              (conv3): Conv2d(256, 1024, kernel_size=(1, 1), stride=(1, 1), bias=False)\n              (bn3): ConditionalDetrFrozenBatchNorm2d()\n              (act3): ReLU(inplace=True)\n            )\n            (5): Bottleneck(\n              (conv1): Conv2d(1024, 256, kernel_size=(1, 1), stride=(1, 1), bias=False)\n              (bn1): ConditionalDetrFrozenBatchNorm2d()\n              (act1): ReLU(inplace=True)\n              (conv2): Conv2d(256, 256, kernel_size=(3, 3), stride=(1, 1), padding=(1, 1), bias=False)\n              (bn2): ConditionalDetrFrozenBatchNorm2d()\n              (drop_block): Identity()\n              (act2): ReLU(inplace=True)\n              (aa): Identity()\n              (conv3): Conv2d(256, 1024, kernel_size=(1, 1), stride=(1, 1), bias=False)\n              (bn3): ConditionalDetrFrozenBatchNorm2d()\n              (act3): ReLU(inplace=True)\n            )\n          )\n          (layer4): Sequential(\n            (0): Bottleneck(\n              (conv1): Conv2d(1024, 512, kernel_size=(1, 1), stride=(1, 1), bias=False)\n              (bn1): ConditionalDetrFrozenBatchNorm2d()\n              (act1): ReLU(inplace=True)\n              (conv2): Conv2d(512, 512, kernel_size=(3, 3), stride=(2, 2), padding=(1, 1), bias=False)\n              (bn2): ConditionalDetrFrozenBatchNorm2d()\n              (drop_block): Identity()\n              (act2): ReLU(inplace=True)\n              (aa): Identity()\n              (conv3): Conv2d(512, 2048, kernel_size=(1, 1), stride=(1, 1), bias=False)\n              (bn3): ConditionalDetrFrozenBatchNorm2d()\n              (act3): ReLU(inplace=True)\n              (downsample): Sequential(\n                (0): Conv2d(1024, 2048, kernel_size=(1, 1), stride=(2, 2), bias=False)\n                (1): ConditionalDetrFrozenBatchNorm2d()\n              )\n            )\n            (1): Bottleneck(\n              (conv1): Conv2d(2048, 512, kernel_size=(1, 1), stride=(1, 1), bias=False)\n              (bn1): ConditionalDetrFrozenBatchNorm2d()\n              (act1): ReLU(inplace=True)\n              (conv2): Conv2d(512, 512, kernel_size=(3, 3), stride=(1, 1), padding=(1, 1), bias=False)\n              (bn2): ConditionalDetrFrozenBatchNorm2d()\n              (drop_block): Identity()\n              (act2): ReLU(inplace=True)\n              (aa): Identity()\n              (conv3): Conv2d(512, 2048, kernel_size=(1, 1), stride=(1, 1), bias=False)\n              (bn3): ConditionalDetrFrozenBatchNorm2d()\n              (act3): ReLU(inplace=True)\n            )\n            (2): Bottleneck(\n              (conv1): Conv2d(2048, 512, kernel_size=(1, 1), stride=(1, 1), bias=False)\n              (bn1): ConditionalDetrFrozenBatchNorm2d()\n              (act1): ReLU(inplace=True)\n              (conv2): Conv2d(512, 512, kernel_size=(3, 3), stride=(1, 1), padding=(1, 1), bias=False)\n              (bn2): ConditionalDetrFrozenBatchNorm2d()\n              (drop_block): Identity()\n              (act2): ReLU(inplace=True)\n              (aa): Identity()\n              (conv3): Conv2d(512, 2048, kernel_size=(1, 1), stride=(1, 1), bias=False)\n              (bn3): ConditionalDetrFrozenBatchNorm2d()\n              (act3): ReLU(inplace=True)\n            )\n          )\n        )\n      )\n      (position_embedding): ConditionalDetrSinePositionEmbedding()\n    )\n    (input_projection): Conv2d(2048, 256, kernel_size=(1, 1), stride=(1, 1))\n    (query_position_embeddings): Embedding(300, 256)\n    (encoder): ConditionalDetrEncoder(\n      (layers): ModuleList(\n        (0-5): 6 x ConditionalDetrEncoderLayer(\n          (self_attn): DetrAttention(\n            (k_proj): Linear(in_features=256, out_features=256, bias=True)\n            (v_proj): Linear(in_features=256, out_features=256, bias=True)\n            (q_proj): Linear(in_features=256, out_features=256, bias=True)\n            (out_proj): Linear(in_features=256, out_features=256, bias=True)\n          )\n          (self_attn_layer_norm): LayerNorm((256,), eps=1e-05, elementwise_affine=True)\n          (activation_fn): ReLU()\n          (fc1): Linear(in_features=256, out_features=2048, bias=True)\n          (fc2): Linear(in_features=2048, out_features=256, bias=True)\n          (final_layer_norm): LayerNorm((256,), eps=1e-05, elementwise_affine=True)\n        )\n      )\n    )\n    (decoder): ConditionalDetrDecoder(\n      (layers): ModuleList(\n        (0): ConditionalDetrDecoderLayer(\n          (sa_qcontent_proj): Linear(in_features=256, out_features=256, bias=True)\n          (sa_qpos_proj): Linear(in_features=256, out_features=256, bias=True)\n          (sa_kcontent_proj): Linear(in_features=256, out_features=256, bias=True)\n          (sa_kpos_proj): Linear(in_features=256, out_features=256, bias=True)\n          (sa_v_proj): Linear(in_features=256, out_features=256, bias=True)\n          (self_attn): ConditionalDetrAttention(\n            (out_proj): Linear(in_features=256, out_features=256, bias=True)\n          )\n          (activation_fn): ReLU()\n          (self_attn_layer_norm): LayerNorm((256,), eps=1e-05, elementwise_affine=True)\n          (ca_qcontent_proj): Linear(in_features=256, out_features=256, bias=True)\n          (ca_qpos_proj): Linear(in_features=256, out_features=256, bias=True)\n          (ca_kcontent_proj): Linear(in_features=256, out_features=256, bias=True)\n          (ca_kpos_proj): Linear(in_features=256, out_features=256, bias=True)\n          (ca_v_proj): Linear(in_features=256, out_features=256, bias=True)\n          (ca_qpos_sine_proj): Linear(in_features=256, out_features=256, bias=True)\n          (encoder_attn): ConditionalDetrAttention(\n            (out_proj): Linear(in_features=256, out_features=256, bias=True)\n          )\n          (encoder_attn_layer_norm): LayerNorm((256,), eps=1e-05, elementwise_affine=True)\n          (fc1): Linear(in_features=256, out_features=2048, bias=True)\n          (fc2): Linear(in_features=2048, out_features=256, bias=True)\n          (final_layer_norm): LayerNorm((256,), eps=1e-05, elementwise_affine=True)\n        )\n        (1-5): 5 x ConditionalDetrDecoderLayer(\n          (sa_qcontent_proj): Linear(in_features=256, out_features=256, bias=True)\n          (sa_qpos_proj): Linear(in_features=256, out_features=256, bias=True)\n          (sa_kcontent_proj): Linear(in_features=256, out_features=256, bias=True)\n          (sa_kpos_proj): Linear(in_features=256, out_features=256, bias=True)\n          (sa_v_proj): Linear(in_features=256, out_features=256, bias=True)\n          (self_attn): ConditionalDetrAttention(\n            (out_proj): Linear(in_features=256, out_features=256, bias=True)\n          )\n          (activation_fn): ReLU()\n          (self_attn_layer_norm): LayerNorm((256,), eps=1e-05, elementwise_affine=True)\n          (ca_qcontent_proj): Linear(in_features=256, out_features=256, bias=True)\n          (ca_qpos_proj): None\n          (ca_kcontent_proj): Linear(in_features=256, out_features=256, bias=True)\n          (ca_kpos_proj): Linear(in_features=256, out_features=256, bias=True)\n          (ca_v_proj): Linear(in_features=256, out_features=256, bias=True)\n          (ca_qpos_sine_proj): Linear(in_features=256, out_features=256, bias=True)\n          (encoder_attn): ConditionalDetrAttention(\n            (out_proj): Linear(in_features=256, out_features=256, bias=True)\n          )\n          (encoder_attn_layer_norm): LayerNorm((256,), eps=1e-05, elementwise_affine=True)\n          (fc1): Linear(in_features=256, out_features=2048, bias=True)\n          (fc2): Linear(in_features=2048, out_features=256, bias=True)\n          (final_layer_norm): LayerNorm((256,), eps=1e-05, elementwise_affine=True)\n        )\n      )\n      (layernorm): LayerNorm((256,), eps=1e-05, elementwise_affine=True)\n      (query_scale): MLP(\n        (layers): ModuleList(\n          (0-1): 2 x Linear(in_features=256, out_features=256, bias=True)\n        )\n      )\n      (ref_point_head): MLP(\n        (layers): ModuleList(\n          (0): Linear(in_features=256, out_features=256, bias=True)\n          (1): Linear(in_features=256, out_features=2, bias=True)\n        )\n      )\n    )\n  )\n  (class_labels_classifier): Linear(in_features=256, out_features=7, bias=True)\n  (bbox_predictor): ConditionalDetrMLPPredictionHead(\n    (layers): ModuleList(\n      (0-1): 2 x Linear(in_features=256, out_features=256, bias=True)\n      (2): Linear(in_features=256, out_features=4, bias=True)\n    )\n  )\n)\n\n\n\n\n18.3 tk - Setup and visualize transforms (augmentations)\n\nTK - explain simple augmentations:\n\nRandomHorizontalFlip\nColorJitter\n\nThat’s it…\nTailor the data augmentations to your own dataset/problem\n\n\n\n\nimport torch\nimport torchvision\n\nfrom torchvision.transforms import v2 \nfrom torchvision.transforms.v2.functional 
…
tch:\n- class_labels_classifier.bias: found shape torch.Size([91]) in the checkpoint and torch.Size([7]) in the model instantiated\n- class_labels_classifier.weight: found shape torch.Size([91, 256]) in the checkpoint and torch.Size([7, 256]) in the model instantiated\nYou should probably TRAIN this model on a down-stream task to be able to use it for predictions and inference.\n\n\nConditionalDetrForObjectDetection(\n  (model): ConditionalDetrModel(\n    (backbone): ConditionalDetrConvModel(\n      (conv_encoder): ConditionalDetrConvEncoder(\n        (model): FeatureListNet(\n          (conv1): Conv2d(3, 64, kernel_size=(7, 7), stride=(2, 2), padding=(3, 3), bias=False)\n          (bn1): ConditionalDetrFrozenBatchNorm2d()\n          (act1): ReLU(inplace=True)\n          (maxpool): MaxPool2d(kernel_size=3, stride=2, padding=1, dilation=1, ceil_mode=False)\n          (layer1): Sequential(\n            (0): Bottleneck(\n              (conv1): Conv2d(64, 64, kernel_size=(1, 1), stride=(1, 1), bias=False)\n              (bn1): ConditionalDetrFrozenBatchNorm2d()\n              (act1): ReLU(inplace=True)\n              (conv2): Conv2d(64, 64, kernel_size=(3, 3), stride=(1, 1), padding=(1, 1), bias=False)\n              (bn2): ConditionalDetrFrozenBatchNorm2d()\n              (drop_block): Identity()\n              (act2): ReLU(inplace=True)\n              (aa): Identity()\n              (conv3): Conv2d(64, 256, kernel_size=(1, 1), stride=(1, 1), bias=False)\n              (bn3): ConditionalDetrFrozenBatchNorm2d()\n              (act3): ReLU(inplace=True)\n              (downsample): Sequential(\n                (0): Conv2d(64, 256, kernel_size=(1, 1), stride=(1, 1), bias=False)\n                (1): ConditionalDetrFrozenBatchNorm2d()\n              )\n            )\n            (1): Bottleneck(\n              (conv1): Conv2d(256, 64, kernel_size=(1, 1), stride=(1, 1), bias=False)\n              (bn1): ConditionalDetrFrozenBatchNorm2d()\n              (act1): ReLU(inplace=True)\n              (conv2): Conv2d(64, 64, kernel_size=(3, 3), stride=(1, 1), padding=(1, 1), bias=False)\n              (bn2): ConditionalDetrFrozenBatchNorm2d()\n              (drop_block): Identity()\n              (act2): ReLU(inplace=True)\n              (aa): Identity()\n              (conv3): Conv2d(64, 256, kernel_size=(1, 1), stride=(1, 1), bias=False)\n              (bn3): ConditionalDetrFrozenBatchNorm2d()\n              (act3): ReLU(inplace=True)\n            )\n            (2): Bottleneck(\n              (conv1): Conv2d(256, 64, kernel_size=(1, 1), stride=(1, 1), bias=False)\n              (bn1): ConditionalDetrFrozenBatchNorm2d()\n              (act1): ReLU(inplace=True)\n              (conv2): Conv2d(64, 64, kernel_size=(3, 3), stride=(1, 1), padding=(1, 1), bias=False)\n              (bn2): ConditionalDetrFrozenBatchNorm2d()\n              (drop_block): Identity()\n              (act2): ReLU(inplace=True)\n              (aa): Identity()\n              (conv3): Conv2d(64, 256, kernel_size=(1, 1), stride=(1, 1), bias=False)\n              (bn3): ConditionalDetrFrozenBatchNorm2d()\n              (act3): ReLU(inplace=True)\n            )\n          )\n          (layer2): Sequential(\n            (0): Bottleneck(\n              (conv1): Conv2d(256, 128, kernel_size=(1, 1), stride=(1, 1), bias=False)\n              (bn1): ConditionalDetrFrozenBatchNorm2d()\n              (act1): ReLU(inplace=True)\n              (conv2): Conv2d(128, 128, kernel_size=(3, 3), stride=(2, 2), padding=(1, 1), bias=False)\n              (bn2): ConditionalDetrFrozenBatchNorm2d()\n              (drop_block): Identity()\n              (act2): ReLU(inplace=True)\n              (aa): Identity()\n              (conv3): Conv2d(128, 512, kernel_size=(1, 1), stride=(1, 1), bias=False)\n              (bn3): ConditionalDetrFrozenBatchNorm2d()\n              (act3): ReLU(inplace=True)\n              (downsample): Sequential(\n                (0): Conv2d(256, 512, kernel_size=(1, 1), stride=(2, 2), bias=False)\n                (1): ConditionalDetrFrozenBatchNorm2d()\n              )\n            )\n            (1): Bottleneck(\n              (conv1): Conv2d(512, 128, kernel_size=(1, 1), stride=(1, 1), bias=False)\n              (bn1): ConditionalDetrFrozenBatchNorm2d()\n              (act1): ReLU(inplace=True)\n              (conv2): Conv2d(128, 128, kernel_size=(3, 3), stride=(1, 1), padding=(1, 1), bias=False)\n              (bn2): ConditionalDetrFrozenBatchNorm2d()\n              (drop_block): Identity()\n              (act2): ReLU(inplace=True)\n              (aa): Identity()\n              (conv3): Conv2d(128, 512, kernel_size=(1, 1), stride=(1, 1), bias=False)\n              (bn3): ConditionalDetrFrozenBatchNorm2d()\n              (act3): ReLU(inplace=True)\n            )\n            (2): Bottleneck(\n              (conv1): Conv2d(512, 128, kernel_size=(1, 1), stride=(1, 1), bias=False)\n              (bn1): ConditionalDetrFrozenBatchNorm2d()\n              (act1): ReLU(inplace=True)\n              (conv2): Conv2d(128, 128, kernel_size=(3, 3), stride=(1, 1), padding=(1, 1), bias=False)\n              (bn2): ConditionalDetrFrozenBatchNorm2d()\n              (drop_block): Identity()\n              (act2): ReLU(inplace=True)\n              (aa): Identity()\n              (conv3): Conv2d(128, 512, kernel_size=(1, 1), stride=(1, 1), bias=False)\n              (bn3): ConditionalDetrFrozenBatchNorm2d()\n              (act3): ReLU(inplace=True)\n            )\n            (3): Bottleneck(\n              (conv1): Conv2d(512, 128, kernel_size=(1, 1), stride=(1, 1), bias=False)\n              (bn1): ConditionalDetrFrozenBatchNorm2d()\n              (act1): ReLU(inplace=True)\n              (conv2): Conv2d(128, 128, kernel_size=(3, 3), stride=(1, 1), padding=(1, 1), bias=False)\n              (bn2): ConditionalDetrFrozenBatchNorm2d()\n              (drop_block): Identity()\n              (act2): ReLU(inplace=True)\n              (aa): Identity()\n              (conv3): Conv2d(128, 512, kernel_size=(1, 1), stride=(1, 1), bias=False)\n              (bn3): ConditionalDetrFrozenBatchNorm2d()\n              (act3): ReLU(inplace=True)\n            )\n          )\n          (layer3): Sequential(\n            (0): Bottleneck(\n              (conv1): Conv2d(512, 256, kernel_size=(1, 1), stride=(1, 1), bias=False)\n              (bn1): ConditionalDetrFrozenBatchNorm2d()\n              (act1): ReLU(inplace=True)\n              (conv2): Conv2d(256, 256, kernel_size=(3, 3), stride=(2, 2), padding=(1, 1), bias=False)\n              (bn2): ConditionalDetrFrozenBatchNorm2d()\n              (drop_block): Identity()\n              (act2): ReLU(inplace=True)\n              (aa): Identity()\n              (conv3): Conv2d(256, 1024, kernel_size=(1, 1), stride=(1, 1), bias=False)\n              (bn3): ConditionalDetrFrozenBatchNorm2d()\n              (act3): ReLU(inplace=True)\n              (downsample): Sequential(\n                (0): Conv2d(512, 1024, kernel_size=(1, 1), stride=(2, 2), bias=False)\n                (1): ConditionalDetrFrozenBatchNorm2d()\n              )\n            )\n            (1): Bottleneck(\n              (conv1): Conv2d(1024, 256, kernel_size=(1, 1), stride=(1, 1), bias=False)\n              (bn1): ConditionalDetrFrozenBatchNorm2d()\n              (act1): ReLU(inplace=True)\n              (conv2): Conv2d(256, 256, kernel_size=(3, 3), stride=(1, 1), padding=(1, 1), bias=False)\n              (bn2): ConditionalDetrFrozenBatchNorm2d()\n              (drop_block): Identity()\n              (act2): ReLU(inplace=True)\n              (aa): Identity()\n              (conv3): Conv2d(256, 1024, kernel_size=(1, 1), stride=(1, 1), bias=False)\n              (bn3): ConditionalDetrFrozenBatchNorm2d()\n              (act3): ReLU(inplace=True)\n            )\n            (2): Bottleneck(\n              (conv1): Conv2d(1024, 256, kernel_size=(1, 1), stride=(1, 1), bias=False)\n              (bn1): ConditionalDetrFrozenBatchNorm2d()\n              (act1): ReLU(inplace=True)\n              (conv2): Conv2d(256, 256, kernel_size=(3, 3), stride=(1, 1), padding=(1, 1), bias=False)\n              (bn2): ConditionalDetrFrozenBatchNorm2d()\n              (drop_block): Identity()\n              (act2): ReLU(inplace=True)\n              (aa): Identity()\n              (conv3): Conv2d(256, 1024, kernel_size=(1, 1), stride=(1, 1), bias=False)\n              (bn3): ConditionalDetrFrozenBatchNorm2d()\n              (act3): ReLU(inplace=True)\n            )\n            (3): Bottleneck(\n              (conv1): Conv2d(1024, 256, kernel_size=(1, 1), stride=(1, 1), bias=False)\n              (bn1): ConditionalDetrFrozenBatchNorm2d()\n              (act1): ReLU(inplace=True)\n              (conv2): Conv2d(256, 256, kernel_size=(3, 3), stride=(1, 1), padding=(1, 1), bias=False)\n              (bn2): ConditionalDetrFrozenBatchNorm2d()\n              (drop_block): Identity()\n              (act2): ReLU(inplace=True)\n              (aa): Identity()\n              (conv3): Conv2d(256, 1024, kernel_size=(1, 1), stride=(1, 1), bias=False)\n              (bn3): ConditionalDetrFrozenBatchNorm2d()\n              (act3): ReLU(inplace=True)\n            )\n            (4): Bottleneck(\n              (conv1): Conv2d(1024, 256, kernel_size=(1, 1), stride=(1, 1), bias=False)\n              (bn1): ConditionalDetrFrozenBatchNorm2d()\n              (act1): ReLU(inplace=True)\n              (conv2): Conv2d(256, 256, kernel_size=(3, 3), stride=(1, 1), padding=(1, 1), bias=False)\n              (bn2): ConditionalDetrFrozenBatchNorm2d()\n              (drop_block): Identity()\n              (act2): ReLU(inplace=True)\n              (aa): Identity()\n              (conv3): Conv2d(256, 1024, kernel_size=(1, 1), stride=(1, 1), bias=False)\n              (bn3): ConditionalDetrFrozenBatchNorm2d()\n              (act3): ReLU(inplace=True)\n            )\n            (5): Bottleneck(\n              (conv1): Conv2d(1024, 256, kernel_size=(1, 1), stride=(1, 1), bias=False)\n              (bn1): ConditionalDetrFrozenBatchNorm2d()\n              (act1): ReLU(inplace=True)\n              (conv2): Conv2d(256, 256, kernel_size=(3, 3), stride=(1, 1), padding=(1, 1), bias=False)\n              (bn2): ConditionalDetrFrozenBatchNorm2d()\n              (drop_block): Identity()\n              (act2): ReLU(inplace=True)\n              (aa): Identity()\n              (conv3): Conv2d(256, 1024, kernel_size=(1, 1), stride=(1, 1), bias=False)\n              (bn3): ConditionalDetrFrozenBatchNorm2d()\n              (act3): ReLU(inplace=True)\n            )\n          )\n          (layer4): Sequential(\n            (0): Bottleneck(\n              (conv1): Conv2d(1024, 512, kernel_size=(1, 1), stride=(1, 1), bias=False)\n              (bn1): ConditionalDetrFrozenBatchNorm2d()\n              (act1): ReLU(inplace=True)\n              (conv2): Conv2d(512, 512, kernel_size=(3, 3), stride=(2, 2), padding=(1, 1), bias=False)\n              (bn2): ConditionalDetrFrozenBatchNorm2d()\n              (drop_block): Identity()\n              (act2): ReLU(inplace=True)\n              (aa): Identity()\n              (conv3): Conv2d(512, 2048, kernel_size=(1, 1), stride=(1, 1), bias=False)\n              (bn3): ConditionalDetrFrozenBatchNorm2d()\n              (act3): ReLU(inplace=True)\n              (downsample): Sequential(\n                (0): Conv2d(1024, 2048, kernel_size=(1, 1), stride=(2, 2), bias=False)\n                (1): ConditionalDetrFrozenBatchNorm2d()\n              )\n            )\n            (1): Bottleneck(\n              (conv1): Conv2d(2048, 512, kernel_size=(1, 1), stride=(1, 1), bias=False)\n              (bn1): ConditionalDetrFrozenBatchNorm2d()\n              (act1): ReLU(inplace=True)\n              (conv2): Conv2d(512, 512, kernel_size=(3, 3), stride=(1, 1), padding=(1, 1), bias=False)\n              (bn2): ConditionalDetrFrozenBatchNorm2d()\n              (drop_block): Identity()\n              (act2): ReLU(inplace=True)\n              (aa): Identity()\n              (conv3): Conv2d(512, 2048, kernel_size=(1, 1), stride=(1, 1), bias=False)\n              (bn3): ConditionalDetrFrozenBatchNorm2d()\n              (act3): ReLU(inplace=True)\n            )\n            (2): Bottleneck(\n              (conv1): Conv2d(2048, 512, kernel_size=(1, 1), stride=(1, 1), bias=False)\n              (bn1): ConditionalDetrFrozenBatchNorm2d()\n              (act1): ReLU(inplace=True)\n              (conv2): Conv2d(512, 512, kernel_size=(3, 3), stride=(1, 1), padding=(1, 1), bias=False)\n              (bn2): ConditionalDetrFrozenBatchNorm2d()\n              (drop_block): Identity()\n              (act2): ReLU(inplace=True)\n              (aa): Identity()\n              (conv3): Conv2d(512, 2048, kernel_size=(1, 1), stride=(1, 1), bias=False)\n              (bn3): ConditionalDetrFrozenBatchNorm2d()\n              (act3): ReLU(inplace=True)\n            )\n          )\n        )\n      )\n      (position_embedding): ConditionalDetrSinePositionEmbedding()\n    )\n    (input_projection): Conv2d(2048, 256, kernel_size=(1, 1), stride=(1, 1))\n    (query_position_embeddings): Embedding(300, 256)\n    (encoder): ConditionalDetrEncoder(\n      (layers): ModuleList(\n        (0-5): 6 x ConditionalDetrEncoderLayer(\n          (self_attn): DetrAttention(\n            (k_proj): Linear(in_features=256, out_features=256, bias=True)\n            (v_proj): Linear(in_features=256, out_features=256, bias=True)\n            (q_proj): Linear(in_features=256, out_features=256, bias=True)\n            (out_proj): Linear(in_features=256, out_features=256, bias=True)\n          )\n          (self_attn_layer_norm): LayerNorm((256,), eps=1e-05, elementwise_affine=True)\n          (activation_fn): ReLU()\n          (fc1): Linear(in_features=256, out_features=2048, bias=True)\n          (fc2): Linear(in_features=2048, out_features=256, bias=True)\n          (final_layer_norm): LayerNorm((256,), eps=1e-05, elementwise_affine=True)\n        )\n      )\n    )\n    (decoder): ConditionalDetrDecoder(\n      (layers): ModuleList(\n        (0): ConditionalDetrDecoderLayer(\n          (sa_qcontent_proj): Linear(in_features=256, out_features=256, bias=True)\n          (sa_qpos_proj): Linear(in_features=256, out_features=256, bias=True)\n          (sa_kcontent_proj): Linear(in_features=256, out_features=256, bias=True)\n          (sa_kpos_proj): Linear(in_features=256, out_features=256, bias=True)\n          (sa_v_proj): Linear(in_features=256, out_features=256, bias=True)\n          (self_attn): ConditionalDetrAttention(\n            (out_proj): Linear(in_features=256, out_features=256, bias=True)\n          )\n          (activation_fn): ReLU()\n          (self_attn_layer_norm): LayerNorm((256,), eps=1e-05, elementwise_affine=True)\n          (ca_qcontent_proj): Linear(in_features=256, out_features=256, bias=True)\n          (ca_qpos_proj): Linear(in_features=256, out_features=256, bias=True)\n          (ca_kcontent_proj): Linear(in_features=256, out_features=256, bias=True)\n          (ca_kpos_proj): Linear(in_features=256, out_features=256, bias=True)\n          (ca_v_proj): Linear(in_features=256, out_features=256, bias=True)\n          (ca_qpos_sine_proj): Linear(in_features=256, out_features=256, bias=True)\n          (encoder_attn): ConditionalDetrAttention(\n            (out_proj): Linear(in_features=256, out_features=256, bias=True)\n          )\n          (encoder_attn_layer_norm): LayerNorm((256,), eps=1e-05, elementwise_affine=True)\n          (fc1): Linear(in_features=256, out_features=2048, bias=True)\n          (fc2): Linear(in_features=2048, out_features=256, bias=True)\n          (final_layer_norm): LayerNorm((256,), eps=1e-05, elementwise_affine=True)\n        )\n        (1-5): 5 x ConditionalDetrDecoderLayer(\n          (sa_qcontent_proj): Linear(in_features=256, out_features=256, bias=True)\n          (sa_qpos_proj): Linear(in_features=256, out_features=256, bias=True)\n          (sa_kcontent_proj): Linear(in_features=256, out_features=256, bias=True)\n          (sa_kpos_proj): Linear(in_features=256, out_features=256, bias=True)\n          (sa_v_proj): Linear(in_features=256, out_features=256, bias=True)\n          (self_attn): ConditionalDetrAttention(\n            (out_proj): Linear(in_features=256, out_features=256, bias=True)\n          )\n          (activation_fn): ReLU()\n          (self_attn_layer_norm): LayerNorm((256,), eps=1e-05, elementwise_affine=True)\n          (ca_qcontent_proj): Linear(in_features=256, out_features=256, bias=True)\n          (ca_qpos_proj): None\n          (ca_kcontent_proj): Linear(in_features=256, out_features=256, bias=True)\n          (ca_kpos_proj): Linear(in_features=256, out_features=256, bias=True)\n          (ca_v_proj): Linear(in_features=256, out_features=256, bias=True)\n          (ca_qpos_sine_proj): Linear(in_features=256, out_features=256, bias=True)\n          (encoder_attn): ConditionalDetrAttention(\n            (out_proj): Linear(in_features=256, out_features=256, bias=True)\n          )\n          (encoder_attn_layer_norm): LayerNorm((256,), eps=1e-05, elementwise_affine=True)\n          (fc1): Linear(in_features=256, out_features=2048, bias=True)\n          (fc2): Linear(in_features=2048, out_features=256, bias=True)\n          (final_layer_norm): LayerNorm((256,), eps=1e-05, elementwise_affine=True)\n        )\n      )\n      (layernorm): LayerNorm((256,), eps=1e-05, elementwise_affine=True)\n      (query_scale): MLP(\n        (layers): ModuleList(\n          (0-1): 2 x Linear(in_features=256, out_features=256, bias=True)\n        )\n      )\n      (ref_point_head): MLP(\n        (layers): ModuleList(\n          (0): Linear(in_features=256, out_features=256, bias=True)\n          (1): Linear(in_features=256, out_features=2, bias=True)\n        )\n      )\n    )\n  )\n  (class_labels_classifier): Linear(in_features=256, out_features=7, bias=True)\n  (bbox_predictor): ConditionalDetrMLPPredictionHead(\n    (layers): ModuleList(\n      (0-1): 2 x Linear(in_features=256, out_features=256, bias=True)\n      (2): Linear(in_features=256, out_features=4, bias=True)\n    )\n  )\n)\n\n\n\n# Note: Depending on the size/speed of your GPU, this may take a while\n\nfrom transformers import TrainingArguments, Trainer\n\n# Set the batch size according to the memory you have available on your GPU\n# e.g. on my NVIDIA RTX 4090 with 24GB of VRAM, I can use a batch size of 32 without running out of memory\nBATCH_SIZE = 16\n\n#
…
oks\n   1561         or _global_forward_hooks or _global_forward_pre_hooks):\n-&gt; 1562     return forward_call(*args, **kwargs)\n   1564 try:\n   1565     result = None\n\nTypeError: DistilBertForSequenceClassification.forward() got an unexpected keyword argument 'text'\n\n\n\nOh no! We get an error.\nNot to worry, this is only because our model hasn’t been trained on our own dataset yet.\nLet’s take a look at the layers in our model.\n\n# Inspect the model \nmodel\n\nDistilBertForSequenceClassification(\n  (distilbert): DistilBertModel(\n    (embeddings): Embeddings(\n      (word_embeddings): Embedding(30522, 768, padding_idx=0)\n      (position_embeddings): Embedding(512, 768)\n      (LayerNorm): LayerNorm((768,), eps=1e-12, elementwise_affine=True)\n      (dropout): Dropout(p=0.1, inplace=False)\n    )\n    (transformer): Transformer(\n      (layer): ModuleList(\n        (0-5): 6 x TransformerBlock(\n          (attention): MultiHeadSelfAttention(\n            (dropout): Dropout(p=0.1, inplace=False)\n            (q_lin): Linear(in_features=768, out_features=768, bias=True)\n            (k_lin): Linear(in_features=768, out_features=768, bias=True)\n            (v_lin): Linear(in_features=768, out_features=768, bias=True)\n            (out_lin): Linear(in_features=768, out_features=768, bias=True)\n          )\n          (sa_layer_norm): LayerNorm((768,), eps=1e-12, elementwise_affine=True)\n          (ffn): FFN(\n            (dropout): Dropout(p=0.1, inplace=False)\n            (lin1): Linear(in_features=768, out_features=3072, bias=True)\n            (lin2): Linear(in_features=3072, out_features=768, bias=True)\n            (activation): GELUActivation()\n          )\n          (output_layer_norm): LayerNorm((768,), eps=1e-12, elementwise_affine=True)\n        )\n      )\n    )\n  )\n  (pre_classifier): Linear(in_features=768, out_features=768, bias=True)\n  (classifier): Linear(in_features=768, out_features=2, bias=True)\n  (dropout): Dropout(p=0.2, inplace=False)\n)\n\n\nYou’ll notice that the model comes in 3 main parts (data flows through these sequentially):\n\nembeddings - This part of the model turns the input tokens into a learned representation. So rather than just a list of integers, the values become a learned representation. This learned representation comes f
…
